part-8/jupyter-notebook/cifar10_cnn.pt (torch_old, 456736 bytes, 8 tensors)

0.weight f4 [32, 3, 3, 3]
000000 a3 3b 50 bb a5 9a e8 bd 5c 0d 10 3e 6e a8 5e be
       -0.0031773828 -0.11357621 0.14067596 -0.21743938
000010 cb 07 3a be 5a 10 25 3e 2d fb 3a 3e 45 0d c0 3d
       -0.18167035 0.16119519 0.18259878 0.09377531
000020 48 19 88 3d 11 8f 7e 3c 03 9c 39 3a aa 52 1b be
       0.06645447 0.015537039 0.00070804375 -0.15168253
000030 9b cc 9d be 28 51 a5 bd f4 fb a7 be 8e 50 12 be
       -0.30820164 -0.0807212 -0.32809412 -0.14288542
000040 0f c4 df 3d dd 40 74 be df 2b bc 3d d0 c2 a2 3e
       0.10926067 -0.23852868 0.09188055 0.31789255
000050 0f 91 1b 3e cc 3b 95 bd ff 17 50 bd 93 ec 16 3e
       0.15192054 -0.07286796 -0.050804134 0.14738683
000060 5a c9 70 3e 0d ac d2 bc ea 5c af 3b 30 96 66 be
       0.2351431 -0.025716806 0.0053516524 -0.2251823
000070 14 3a 35 be 4b 8c ba 3a a9 bb 3d bd 5c 0e 97 be
       -0.17697936 0.0014232484 -0.046321545 -0.29503143
000080 c7 16 2d be 05 f7 05 be d7 6c 89 be 22 c3 b8 3b
       -0.1690322 -0.13082512 -0.2684085 0.005638496
000090 cb 52 bc 3a 69 6d f5 bb e0 8a 13 be 28 2f 5a bc
       0.0014367936 -0.0074898493 -0.14408445 -0.013316907
0000a0 ca ad 29 be 15 e6 01 be f1 a7 6e 3d 6c 3c 31 3b
       -0.16570202 -0.12685426 0.05826563 0.002704407
0000b0 0a a8 83 bd 16 cb 05 be 55 a9 1e 3e a9 fe 02 bd
       -0.06428535 -0.13065752 0.15494283 -0.031981144
0000c0 1c ed 0c be 6c 38 89 be ea 21 c2 bc 7e cd 84 bd
       -0.13762325 -0.2680086 -0.023697812 -0.06484507
0000d0 2e 63 44 be f0 78 7d bd 3e ff d1 bd ef 5e ae 3c
       -0.19178459 -0.061882913 -0.10253762 0.021285502
0000e0 6b 56 6e be 2e 48 00 be 8e 26 5e be d0 35 5c 3e
       -0.23275153 -0.12527534 -0.21694395 0.21504903
0000f0 e8 fb 33 3e 61 48 81 3e 90 8c df bb 20 f4 82 3d
       0.17576563 0.25250533 -0.0068221763 0.063942194
000100 21 66 03 be e6 37 47 be 74 ce 6d be b8 81 6d 3c
       -0.12831928 -0.19454917 -0.23223287 0.014496259
000110 6b 64 48 3e 00 15 e5 3d 48 07 88 3c 5b 67 83 3e
       0.19569556 0.11185646 0.016605034 0.2566479
000120 e5 cc 83 bb 23 c2 03 be 95 bc bf bd e7 03 20 be
       -0.004022228 -0.12867026 -0.09362141 -0.15626489
000130 f7 6d 3f bd 83 4c c0 bd 0d e7 25 3e 7a 98 72 3e
       -0.04673573 -0.093895935 0.1620142 0.23690978
000140 a7 2d 55 3c f9 53 9d 3d 80 f7 ea bd c0 da e5 3b
       0.013011373 0.07682032 -0.11472988 0.0070146024
000150 d1 bd 50 be 24 7a 95 be c5 ed ee bc 76 6e 06 bd
       -0.20384909 -0.29194748 -0.029166112 -0.032820188
000160 9b e1 8f bd d4 6b 9f 3e 4d d3 32 bd d6 30 88 be
       -0.07025453 0.31136954 -0.043658543 -0.2659976
000170 04 c4 6f be b7 83 5a be c4 4a bf be 92 7d 2d bd
       -0.23414618 -0.21339308 -0.3736173 -0.04235608
000180 00 e5 28 be c5 62 5e be 7e cd 36 3e a9 61 f2 3d
       -0.16493607 -0.21717365 0.17851827 0.118350334
000190 c7 a1 38 bb 04 bc 0f 3e bf e7 9c bc 02 f6 04 be
       -0.0028172599 0.14036566 -0.019153474 -0.1298447
0001a0 c4 8b f4 bd 33 43 25 3d 61 03 12 be 82 e0 89 3e
       -0.11940721 0.04034729 -0.14259101 0.26929098
0001b0 87 ef af bd 72 da 66 be c6 46 2c bd b6 22 87 3e
       -0.08590608 -0.22544268 -0.042059682 0.2639367
0001c0 b9 6a 13 be e7 0c b7 bd 62 bf 45 3e 0d b4 44 be
       -0.1439618 -0.08938008 0.19311288 -0.19209309
0001d0 fa 4d 3f 3d ad 11 b9 3d 1d b1 9a be 4b 8d 23 3d
       0.046705224 0.090365745 -0.30213252 0.03992967
0001e0 c9 80 c5 3e 25 c4 97 be c5 84 02 be 02 9c 66 3e
       0.38574818 -0.29641834 -0.1274596 0.2252045
0001f0 a6 d9 ae bd ea fe 37 3e 7b 32 6d 3d 18 54 91 be
       -0.08537607 0.17968336 0.05790947 -0.2838447
000200 10 da ec 3d 90 be 64 3e 55 8c 32 be c5 dc 2e be
       0.115650296 0.22338319 -0.17436345 -0.17076404
000210 d7 2b a5 3e ce df 48 be 12 c4 36 3e cc c8 59 be
       0.3226001 -0.19616625 0.17848232 -0.21268004
000220 0c 86 80 3d aa ae 96 bd 99 e3 60 3d b9 c2 1d be
       0.062755674 -0.07357533 0.054904554 -0.15406312
000230 f8 ed 14 3e ea 73 85 3e ee 6c b5 3d d4 5f 0a bc
       0.14543903 0.26064998 0.08858667 -0.008445699
000240 cb 3e 24 be 66 ba c1 3d 5d 1f 82 3e 77 31 4a 3e
       -0.16039579 0.09459381 0.25414553 0.19745432
000250 9f 0b c8 bd 5a 73 28 3e 5a df 35 3e 94 06 83 3e
       -0.097678415 0.16450253 0.17760983 0.25590956
000260 d2 56 35 be 5a b9 e2 3c 9b 85 e3 bd cf 11 6f bd
       -0.177089 0.027676273 -0.111094676 -0.058366593
000270 b6 dc 1c be 6e 19 6b bd ce 6d 1d bd ab 90 5f 3e
       -0.1531857 -0.0573973 -0.038434796 0.2183253
000280 17 36 2c bc 7e 99 f8 bd ff a4 74 be 05 1e c1 be
       -0.010510943 -0.12138651 -0.23891066 -0.37718216
000290 d7 97 c7 3d 7c ae 52 3d 76 76 4f 3e a5 31 61 3c
       0.09745758 0.051435933 0.20260033 0.013744746
0002a0 69 ba 47 3e 04 45 23 3e f8 cd 6d bd 40 02 34 be
       0.19504704 0.15944296 -0.058057755 -0.17578983
0002b0 b3 e9 3c be 2c 07 ab 3c 4d 2f 80 3c fb 02 9b 3d
       -0.18448524 0.020877443 0.015647555 0.07568928
0002c0 f3 6c 47 3e 44 e7 1b 3e ba d1 4e 3e da 06 bc bd
       0.19475155 0.1522494 0.20197192 -0.09180994
0002d0 2b 6d 25 be da a7 68 be a8 fc 01 be 2f 53 a3 bd
       -0.16154926 -0.2272028 -0.12694037 -0.079748504
0002e0 0d 53 0c 3e d4 92 7b 3d 52 99 16 3e 10 e1 f5 3d
       0.13703556 0.061419323 0.14706925 0.12005818
0002f0 38 42 de bc da a7 c3 bc f7 6d 7f 3e e8 71 07 be
       -0.027131185 -0.023883749 0.24944292 -0.13227046
000300 23 24 3e 3e de 00 8f 3e b6 ae 85 3e 71 d6 16 bc
       0.18568473 0.2793035 0.26109856 -0.0092064
000310 99 2c db 3c fb de 0b 3e 40 ff ed 3d 66 f8 4c 3e
       0.026754664 0.13659279 0.11620951 0.20016631
000320 a2 fd 4d 3e 42 7b 3e bc 18 6e 69 3e 3b 26 6b 3e
       0.20116284 -0.011626067 0.22795904 0.22963803
000330 e1 80 93 bd 69 88 2a 3e f4 a0 02 be 41 7f 52 bd
       -0.07202316 0.16653599 -0.12756711 -0.05139089
000340 0f 9b 7d 3e 9a c1 dc 3c 43 44 a8 3e 0b 6c a5 3e
       0.24766181 0.026947785 0.3286458 0.32308993
000350 3c 66 b5 3d 9c f0 7d 3e 24 ce 89 3e 78 3a 7f bd
       0.0885739 0.24798816 0.26915085 -0.06231162
000360 44 99 94 be 80 2e b2 3e f3 e6 98 3e 30 a0 ef be
       -0.29023182 0.34801102 0.298637 -0.468019
000370 82 0b b7 3d d6 0f c8 3e a3 fd ad be 68 f0 8a 3d
       0.08937742 0.39074582 -0.33982572 0.06784135
000380 5b e1 02 bd 55 1f fe 3b 85 9b 30 3e d3 f8 c2 3e
       -0.031953197 0.0077552 0.17246826 0.38080463
000390 a8 16 e3 be 5c 9c 43 bd 31 2c 0c bb 3e 07 cc be
       -0.44353223 -0.047756538 -0.0021388645 -0.39849275
0003a0 01 29 9e bd 60 d8 26 3e 7f 25 a5 bd 6d f9 b0 3e
       -0.077226646 0.16293478 -0.080637924 0.34565297
0003b0 9e a7 98 3e d3 4c c3 be 36 db 64 bd e8 47 19 3e
       0.29815382 -0.3814455 -0.05587312 0.14968836
0003c0 03 d1 8c be 95 0e 1c be 6e 9c 77 3e 57 ba d8 3d
       -0.27503213 -0.15239938 0.24180767 0.105824165
0003d0 9b 2c de 3d 6c dd ea bc 06 c6 5b be 20 49 b1 3b
       0.108483516 -0.028670035 -0.21462259 0.0054103285
0003e0 50 43 4c be 07 78 fa bd 0f 4d db 3c 26 fe d6 bd
       -0.19947553 -0.12229925 0.026770143 -0.10497694
0003f0 cb 1d 2e 3b 4e b5 01 be c0 85 ba 3a 31 11 4d 3e
       0.002656805 -0.12666818 0.0014230534 0.20026089

0.bias f4 [32]
000000 93 df 28 3e 42 9b ae bd c6 01 2b 3c 16 6e 81 be
       0.16491537 -0.08525707 0.010437435 -0.252793
000010 26 a5 f7 3d 38 3c c8 3e 84 a4 51 3d 60 28 3b bd
       0.120920464 0.39108443 0.051182285 -0.0456928
000020 6b 34 7a 3c 71 bf c6 3d c2 24 97 bd 6c 93 91 3b
       0.0152712865 0.09704483 -0.07380058 0.004442623
000030 4f 4b 85 3d f2 64 4b 3d 0f 4d 2b be 21 bb f0 3c
       0.065085046 0.049656816 -0.16728614 0.029386105
000040 42 76 cc 3e c8 59 a7 bc ad e3 f5 3e 5c 75 60 3e
       0.39933974 -0.020428553 0.48025265 0.21919769
000050 01 3f d9 3b 5e a7 91 bd b2 d5 1b 3e d0 14 54 3e
       0.006629825 -0.07112001 0.15218237 0.20711064
000060 7f 93 2e 3e a5 5b 46 3e 8f 9b 8a bc 09 80 62 be
       0.17048453 0.19370897 -0.01691988 -0.22119154
000070 ba 20 c3 3e f3 cb 5d 3e ee 0e cd 3e 91 54 1b be
       0.38110906 0.21659832 0.40050453 -0.15168978

3.weight f4 [64, 32, 3, 3]
000000 dd af a3 bd 56 0b 1f 3d 74 f5 6c 3d bb 92 0c bd
       -0.07992528 0.03882917 0.05785127 -0.03431962
000010 d8 5c a1 bd f0 15 e8 3c 1f f8 a9 bd 37 b9 a6 3c
       -0.07879037 0.028330773 -0.082992785 0.02035199
000020 11 30 97 bc 94 31 57 bd c7 45 50 3d 76 6b 0f bd
       -0.018455537 -0.052537516 0.050847795 -0.035014592
000030 d0 1b ec bd 0d c9 8e bc 07 f6 cd 3d 23 f4 61 bb
       -0.11528742 -0.017429853 0.100566916 -0.0034477792
000040 ec 09 c0 3c 55 50 ce 3d 1b 0b 31 bd 74 19 0a bd
       0.023442231 0.10073916 -0.04322348 -0.03371568
000050 e1 1b 8d bd fb 1a 11 3d c9 27 3f bd 5f b9 a1 3c
       -0.06890083 0.03542612 -0.0466688 0.019741712
000060 4a 44 95 bc 17 31 e2 bc a2 8a 31 3d c4 3b 27 bc
       -0.01822104 -0.027611298 0.0433451 -0.01020712
000070 a0 ed 63 bd 4b c1 87 3c 7c f5 ae bd 72 7f 8d bb
       -0.05564654 0.016571661 -0.08542916 -0.004318171
000080 fc 61 d7 3c 2b 32 a6 bd a9 a1 33 bc 46 9e a3 3c
       0.02629184 -0.081150375 -0.010963836 0.019972932
000090 21 c4 dc 3a 66 db 8d 3c b0 08 5e bd 9b 16 0c 38
       0.0016843119 0.017316531 -0.054207504 3.3399654e-05
0000a0 1b 0e bb 3c 90 8a cb 3c c2 d6 63 bd e2 65 fa bc
       0.022833874 0.024846345 -0.05562473 -0.03056616
0000b0 6b 3c 62 3d 86 42 a4 3d 74 98 3c 3d 3e ed 34 bc
       0.0552334 0.08020501 0.046043828 -0.011042891
0000c0 ef fd 1d 3d be e6 a1 3d 56 01 d7 bc d7 86 78 3d
       0.038572248 0.07905339 -0.026245754 0.06067547
0000d0 f1 cb 0a bd 4d ee 6e bb 85 4a a7 3d 7f b1 78 bd
       -0.0338859 -0.0036457956 0.0816851 -0.06071615
0000e0 79 11 20 bd e3 1f db bc ca 1f e1 3b a1 df 94 bd
       -0.039079163 -0.026748603 0.0068702446 -0.07269216
0000f0 c9 a6 a1 3c 17 c6 8f 3c 19 3f 2e 3c 48 c9 14 bd
       0.01973285 0.017550511 0.010635161 -0.03632477
000100 21 ef 88 bc e7 70 a9 bd 01 43 00 3e a2 59 03 bd
       -0.016715588 -0.082734875 0.1252556 -0.032067902
000110 da 67 20 be 28 45 89 3d 32 82 f5 3c 14 29 89 bd
       -0.15664616 0.06702644 0.029969309 -0.06697288
000120 ed b5 4f bd 03 f7 91 3d f3 d3 b5 3d 9f ca 24 3d
       -0.050710607 0.07127192 0.08878317 0.040232297
000130 d6 52 60 bd 5d 80 6f 3d c4 af ce 3d ee 0c 61 bd
       -0.0547665 0.058472026 0.100921184 -0.05494397
000140 df e0 79 bc 92 51 88 3b a0 36 11 bb 71 4b eb 3a
       -0.015251367 0.0041601146 -0.0022157803 0.001795156
000150 c5 34 36 3a e7 fc 00 bc c7 4f 8e bd 0f 76 1b 3d
       0.00069506123 -0.007872797 -0.0694881 0.037954386
000160 c9 b6 54 bd 8b c5 eb bb b6 d5 b1 bc 81 bb ca bc
       -0.05193213 -0.00719518 -0.02170835 -0.024747612
000170 89 4a 9e 3c 4b ca 8c bd 29 e7 9e bc 72 25 8e bd
       0.01932265 -0.06874522 -0.019397335 -0.06940736
000180 53 4b 8c bd a7 ae 2e bd d3 e7 04 3d 89 13 27 bd
       -0.068503045 -0.04264703 0.032447647 -0.040790115
000190 53 ef 95 bd ca 4f ce 3c 8e fa 4e 3d 69 e8 ca bb
       -0.07321038 0.02518453 0.050531916 -0.006192256
0001a0 ff b3 8b bc ca 11 9c bc 39 6d af 3c 61 70 ad bc
       -0.017053602 -0.019051451 0.021414386 -0.02117175
0001b0 62 31 45 bd 0e 22 ba 3b df d8 8e bc 94 4b fd bc
       -0.0481428 0.005680329 -0.017437397 -0.030919828
0001c0 f6 f4 ad bd e7 03 ba 3c 40 38 e0 3a a4 59 74 bd
       -0.08493988 0.022706939 0.0017106608 -0.0596558
0001d0 0c 43 31 3d 8f a3 c4 3b 82 e4 5a 3b 8d 86 ba bc
       0.04327683 0.006000943 0.0033400361 -0.022769237
0001e0 cf 00 bd 3c e0 d8 96 bd 48 85 f1 bc 4a 87 e5 bc
       0.023071675 -0.073655844 -0.029482499 -0.028018612
0001f0 db 49 e3 bc 13 da 00 bd 46 8d a1 bd ea cb 8d 3d
       -0.027745178 -0.03145797 -0.07888274 0.06923659
000200 3e c8 22 3d 0d e9 30 be 29 49 52 3d fe 9f 29 3e
       0.039741747 -0.17276402 0.051339302 0.16564938
000210 87 01 07 be 14 54 95 bd 13 e1 ae 3d ad 8f 64 bd
       -0.13184176 -0.07291427 0.08539023 -0.055801082
000220 84 35 2c 3d 09 e8 7e 3d c5 d6 9d bd be 75 19 3d
       0.042043224 0.062233005 -0.0770698 0.037465803
000230 4d 46 2e 3d a3 ec 6a bd 57 f9 87 3c 37 a7 9f 3d
       0.042547513 -0.05735458 0.016598387 0.077955656
000240 1a 23 9b 3d 83 42 70 bd 57 23 f0 bd 4f 92 84 3d
       0.075750545 -0.05865718 -0.117254905 0.06473219
000250 ec ff 2f bd 90 62 bd bd 90 66 16 bc 83 ad 13 bc
       -0.042968675 -0.09247315 -0.009179726 -0.009013536
000260 b6 11 85 3d 77 d6 b5 bd 78 a4 81 bd a4 c7 0d bd
       0.06497519 -0.088787965 -0.06330198 -0.03461422
000270 75 23 81 bd 61 40 9f bc 94 39 2c 3d 2d 9f 20 bd
       -0.06305591 -0.019439878 0.0420471 -0.0392143
000280 01 57 7e bd e0 fa e3 bc af 49 8f 3d c9 6b 05 3d
       -0.062094692 -0.027829587 0.06996476 0.032573495
000290 b1 a9 a2 bc dd 82 e7 3d 4b 20 f4 3d e6 19 7e bd
       -0.019856306 0.11304257 0.11920222 -0.062036417
0002a0 cf 5a 99 3c fd dc 4d 3d cc 1a 0a bd a4 c7 be bc
       0.018720059 0.05025958 -0.03371696 -0.023288555
0002b0 41 58 18 bd ff 7d 28 bd df fc dc bc ab c6 41 bd
       -0.03719354 -0.041135784 -0.026976047 -0.047308605
0002c0 71 69 1b bd 61 31 cc bc a4 b9 59 3c b5 90 46 bd
       -0.037942354 -0.02492589 0.013288889 -0.048477847
0002d0 14 c9 1c 3d db 91 b6 bb 4b ac 8b 3c 27 e6 25 3d
       0.0382777 -0.0055715865 0.01704993 0.040502694
0002e0 c1 4d fa 3b 00 6f cc bd 1f 4a 75 3d 27 17 26 3d
       0.0076386635 -0.09982109 0.05988514 0.040549424
0002f0 56 29 b7 bc f6 d7 6a bd 15 5c 70 bd 1a 26 36 bd
       -0.022358578 -0.057334863 -0.058681566 -0.04446993
000300 27 ae 2a 3d e9 64 d1 3a 77 dd 40 bd 4b 89 62 3c
       0.04166999 0.0015975508 -0.047086205 0.0138266785
000310 cf ce d2 bb c6 d1 f7 bc c5 4a f4 3d 8e 45 f1 bc
       -0.006433345 -0.030251395 0.11928324 -0.029452112
000320 42 be 77 bd 8a 79 ac 3d ae 5d a9 3d a3 69 26 bd
       -0.06048418 0.08421619 0.08269821 -0.040628087
000330 c6 7a 49 bd b8 55 9a bc cd 69 bc 3d 2c e1 94 3c
       -0.04918935 -0.018839702 0.091998674 0.018173777
000340 0a 08 dc 3c c1 c3 31 3d 51 37 68 3c 80 9c 00 be
       0.026859302 0.043399576 0.014173345 -0.125597
000350 56 87 64 3d 8e 43 8b 3d d7 c1 a4 bd c4 b0 88 bd
       0.05579313 0.067999944 -0.080447845 -0.0667434
000360 46 0e e1 3d 5c 0a af bc 70 3d 6d bd 37 84 0d 3d
       0.109890506 -0.021367244 -0.05791992 0.034549918
000370 b1 8b c5 3d 83 f8 f9 3c 01 0e c9 bd 69 8c 64 3d
       0.09645785 0.030514007 -0.09817124 0.055797968
000380 18 b3 e4 3d 1f f1 8c bb f6 65 af 3d 3a d8 bf 3d
       0.11166972 -0.004301205 0.085643694 0.09367414
000390 23 8c 65 bd e9 99 60 bd ac 49 82 3d 5a a1 8a bc
       -0.056041848 -0.05483428 0.06361708 -0.016922642
0003a0 df f4 90 bc e0 b1 b5 3d 6e 4f 66 bd 1a c4 5f bd
       -0.017694889 0.088718176 -0.056228094 -0.054630376
0003b0 af ab 7c bd ae 83 98 3b 7a ce 20 3c 82 0f 34 bd
       -0.061687168 0.0046543693 0.009814853 -0.043960102
0003c0 50 26 9b 3d f0 b1 87 bd 4b f3 95 3b 4f d0 5d bd
       0.07575667 -0.06625736 0.004576122 -0.054153737
0003d0 27 a2 0c bd 55 85 05 3c de 8f ab bd 15 bb 1e bd
       -0.034334328 0.008149465 -0.0837705 -0.038752634
0003e0 3a b8 16 bd 3b cd a4 bd 70 30 54 3d 7e 14 b1 bc
       -0.036796786 -0.08046957 0.051804006 -0.021616217
0003f0 24 ef cc 3c 16 b5 50 3b 03 10 b2 bd 25 10 5f 3b
       0.025016375 0.0031846217 -0.0869446 0.0034036722

3.bias f4 [64]
000000 99 d2 b6 3c bc b3 3a 3d 7d 1d 0b bd 9d e1 31 3b
       0.022317218 0.045581564 -0.03396367 0.0027142533
000010 d0 fc 48 bd 7b 83 e5 3d 82 e2 55 bc be ce bf bc
       -0.049069226 0.112067185 -0.013054492 -0.023414012
000020 f5 27 bf 3c f9 ca d7 bc bd 25 eb 3c 7d ed 16 be
       0.023334483 -0.026341902 0.028704518 -0.14739032
000030 18 7f ed 3c ae ff fc 3d 46 19 84 bc 30 6f 02 bd
       0.028991267 0.123534545 -0.016125333 -0.031844318
000040 87 eb 51 3d fc 6c d1 3d 2c de f1 bd 3f 94 2f bd
       0.051250007 0.10225865 -0.11809954 -0.042865988
000050 3a 9d 22 bd 2b 45 0b 3e 67 7e 1c 3d 8b 84 1c bd
       -0.039700724 0.13600604 0.038206484 -0.03821234
000060 d9 69 21 bd 08 02 26 3e 0d f6 ee 3b 51 8b ca 3c
       -0.039407585 0.16211712 0.007292515 0.024724634
000070 7c 6f 79 3c 08 cf d0 bd 2c 42 c7 bd bf 72 31 be
       0.015224334 -0.10195738 -0.09729418 -0.17328928
000080 f3 2a d5 bd 68 ac d8 bd 5b bd 69 3d 8f b1 52 bd
       -0.104085825 -0.10579759 0.05706535 -0.051438864
000090 ac 39 98 bd 5b 03 87 bc 5d f8 0e bd 66 1a 04 be
       -0.07432875 -0.016481092 -0.034904826 -0.12900695
0000a0 d6 99 ca 3d 77 b5 c3 bd a0 09 c8 3d 22 19 54 3d
       0.09892623 -0.09556096 0.09767461 0.05178178
0000b0 b5 27 24 3d a5 ce a2 bd bc 6d 94 3d c5 a6 a4 bd
       0.04007693 -0.079495706 0.07247493 -0.08039621
0000c0 be e8 eb 3c da 0b c6 bd 33 50 a8 bd e3 a3 e1 bd
       0.028797504 -0.09670229 -0.08218422 -0.11017587
0000d0 81 47 08 3d 8a f8 a1 b9 32 43 52 3d 03 d0 2c bd
       0.033271316 -0.0003089349 0.051333614 -0.042190563
0000e0 eb d4 62 bd 6d 14 f5 bc b3 da 94 3e 8e b3 4b bd
       -0.055378836 -0.029916966 0.29073104 -0.049731784
0000f0 74 1c 22 be 7e d5 f5 bd 48 16 95 bd 03 cd 85 3d
       -0.15831167 -0.12003611 -0.072796404 0.065332435

6.weight f4 [128, 64, 3, 3]
000000 84 36 0f 3d 65 2c 69 3d 6c 63 fa 3c 7f 08 be bc
       0.0349641 0.056927104 0.030564986 -0.02319741
000010 81 31 30 bd ba 82 50 3c ff c0 bb bb 54 dc 2f 3c
       -0.04301596 0.01272648 -0.005729794 0.010733683
000020 3e 7a 16 bb 83 0c ca bb c9 62 96 bc fc 90 87 3b
       -0.0022961046 -0.0061660423 -0.018357651 0.0041371565
000030 d6 b1 ed 3c 17 cb f0 bc 4c 0e 2a 3d 5a 72 bd bc
       0.029015463 -0.029393716 0.04151754 -0.023125816
000040 de a6 81 bc 6c 1a 9c bb 97 0a 38 3c 6d 9c 60 bc
       -0.015826639 -0.004763892 0.011232994 -0.01370917
000050 97 05 ab 3c 9f 81 db bc 23 c8 11 3c 14 dd 3a 3c
       0.020876689 -0.026795207 0.008897814 0.011405248
000060 2a 7a 53 bc d7 e0 34 bc 28 ce 0a bd 93 e9 91 3c
       -0.012907544 -0.011039934 -0.033888012 0.017811572
000070 b5 6a f3 bb ca f7 ca b9 68 38 02 bc f3 83 1f 3c
       -0.007428492 -0.0003871306 -0.007948019 0.009736049
000080 0c 5d 1d 3d 76 7a 84 3c ee 05 d6 bc a0 30 e8 3c
       0.038418815 0.016171675 -0.026125874 0.028343499
000090 e7 94 5d bc ba 02 af 3c 3d dc 34 bc 76 49 17 bb
       -0.013524271 0.021363605 -0.011038837 -0.0023084558
0000a0 2a 1d 3c bb dc dd e2 bc c2 c2 db bc 80 c6 36 3d
       -0.0028703907 -0.027693681 -0.026826266 0.044622898
0000b0 fe de 13 3d d9 71 c2 bc d9 3a ef bb 5d 99 64 bc
       0.036101334 -0.023735927 -0.0073007164 -0.01395258
0000c0 63 33 b1 bb 35 55 ba 3c 33 93 1a bb d2 d0 6c bd
       -0.005407737 0.022745708 -0.0023586273 -0.057816334
0000d0 e2 b0 e1 bc 32 70 3e bc 7b 63 ae 3c c7 7e dd bb
       -0.027550165 -0.011623429 0.02128767 -0.006759498
0000e0 75 52 a0 bb 6f a6 c5 bc 8d 9b 9b bb 8c 64 ac 3b
       -0.004892642 -0.024127213 -0.0047487677 0.0052610096
0000f0 dc 4f 94 3c 50 a9 c9 3c f8 51 c2 bc 0f 31 23 bc
       0.018104486 0.024616867 -0.023720726 -0.009960427
000100 f9 6d 06 bd e2 ab 33 bb 46 bc d8 bc 55 22 20 bd
       -0.03281972 -0.0027415683 -0.026456963 -0.03909524
000110 67 a4 e6 bc b6 2d e6 3c 43 59 43 bc 43 c3 90 bb
       -0.028154565 0.028097969 -0.011923137 -0.0044178083
000120 1b fe 97 bc 37 b5 62 3c f0 63 74 3d 72 08 c2 bb
       -0.018553784 0.01383715 0.05966562 -0.005921417
000130 86 a7 be 3c 94 45 00 3d 76 56 35 bd d8 bc 1c bd
       0.02327324 0.031316355 -0.04427191 -0.038266033
000140 8f c3 d0 bc 99 9d 5a 3c e8 39 9f bc ff 2f 98 3c
       -0.025483875 0.013343238 -0.019436792 0.018577574
000150 a0 d3 19 3c 1d 21 15 3d db 04 b1 bc fa d8 ce ba
       0.009388834 0.036408532 -0.02160876 -0.0015781217
000160 09 fa 86 3c 4a be 07 3d ac b3 83 bc de e8 de 3c
       0.016476648 0.03314046 -0.016076885 0.02721065
000170 ce 33 aa 3c ff 96 25 3d 34 d5 32 3b de c2 7c bc
       0.020776656 0.040427204 0.0027287723 -0.015427319
000180 6a a3 0a 3d df b8 b7 bb 09 31 df ba 27 9c 85 3a
       0.03384725 -0.005606755 -0.0017028163 0.0010193632
000190 7d 70 26 3c 5d 6f c5 bb a1 ed c4 3c 40 31 c0 3b
       0.010158655 -0.0060252384 0.024039092 0.005865246
0001a0 07 0e 23 3d bb df fd bc b0 54 8c bc 71 f7 c9 bc
       0.0398083 -0.030990472 -0.017130226 -0.024654122
0001b0 a3 ae 9d 3a 86 9a 9f 3c 28 74 85 3c 5e 4a 2e bd
       0.0012030195 0.019482862 0.01629074 -0.04255139
0001c0 b0 43 7c bd 92 5f 71 3c 3b 8f bd bb 78 ed a6 3c
       -0.06158799 0.014732258 -0.0057848967 0.020376906
0001d0 9e 19 c3 bc 3c 60 b7 bc a9 e5 19 3d a3 9d 15 3d
       -0.023815926 -0.022384755 0.037572537 0.036527287
0001e0 67 98 d8 bc 33 bf 9a 3c 04 e5 c2 bc fa b2 47 3c
       -0.026439859 0.018889999 -0.023790844 0.012188667
0001f0 a9 b8 04 bd de 04 12 3d db 5f 1b 3d a7 fc 2b 3d
       -0.03240267 0.035649173 0.03793321 0.041988995
000200 7a 11 0e 3c 1e a9 e2 3b 5e ac 49 3d e9 ff 15 3d
       0.008671159 0.006917133 0.049236648 0.036621008
000210 2d d0 20 bd af 45 05 bd 81 01 33 bd 8a cb 4c 3c
       -0.039261032 -0.03253716 -0.043702606 0.012499699
000220 6a 88 6e 3c aa 6d c2 3b 7f 4d 35 3c a3 4b 49 bc
       0.014558891 0.005933483 0.01106584 -0.0122861
000230 38 93 b2 3a 78 88 8d bc 97 e9 af bc db 92 34 bd
       0.0013624197 -0.017276987 -0.021473689 -0.044085365
000240 3f fd 93 bc a5 e7 86 bc b0 9e 00 3d 38 8a 53 3a
       -0.018065093 -0.016467879 0.031401336 0.00080696074
000250 56 bc 9b 3c 00 28 40 3c 46 41 42 b9 30 78 37 bd
       0.019010704 0.011728287 -0.00018525598 -0.044792354
000260 d1 bd c7 bc 68 35 28 bd ef 6f a6 3c c9 9a 45 bc
       -0.024382504 -0.041066557 0.020317046 -0.012060829
000270 01 5e fd 3c 00 50 9e bc 92 06 1f bd b7 f2 12 3d
       0.030928614 -0.019325256 -0.038824625 0.035876002
000280 8c 5b a1 3c a2 8d 2a bc 6e fd fe bc 79 7e 8f 3d
       0.019696973 -0.010409744 -0.031126704 0.070065446
000290 23 ee 98 3d 88 8b d7 3a b9 41 96 3d 33 70 03 3d
       0.07467296 0.0016444782 0.07336754 0.032089423
0002a0 48 23 ae 3c a2 e0 52 bd 14 f5 48 bd c3 3b 89 bc
       0.021257058 -0.051483758 -0.04906185 -0.01675213
0002b0 f9 2d f9 bc ad ea 2f 3c ce a5 87 bc 1a 07 18 bd
       -0.03041743 0.010737103 -0.016558554 -0.037116148
0002c0 6c 5b 24 bc 73 d6 89 3a 58 7d 0a 3d fa de 2a bd
       -0.010031562 0.0010516181 0.033810943 -0.041716553
0002d0 11 d9 15 3d 8b 7e c5 3c 85 16 ac 3c 83 3d 89 3c
       0.036583964 0.024108192 0.021006832 0.016752964
0002e0 7c 78 f6 3c 99 e1 b7 bc e0 b3 05 bd 70 09 38 bd
       0.030086748 -0.02244644 -0.032642245 -0.044930875
0002f0 f1 35 d4 bc 41 54 47 bc 79 b9 f9 bc 23 8d 2b 3c
       -0.025904628 -0.012166084 -0.030483948 0.010470661
000300 53 1e 20 bb c7 ea 38 bd bf fc 01 bb 67 16 93 3c
       -0.0024432137 -0.045145776 -0.0019834486 0.017955018
000310 56 9e 53 3c 88 93 6e 3d b9 3f 21 bd 36 e7 f2 3c
       0.012916168 0.058246166 -0.03936741 0.029651266
000320 42 2d d5 bb 65 26 c8 3c 83 8e c7 bc ee ed 16 bd
       -0.0065056393 0.02443237 -0.024359947 -0.036848
000330 83 60 93 bc e8 c4 10 3a 9b ba 67 bd fe 80 13 bd
       -0.017990356 0.00055225054 -0.056574445 -0.03601169
000340 7e c5 b3 3d ab 0f b3 3d b0 64 2d bc 18 9c ee b9
       0.08777903 0.08743223 -0.010583088 -0.00045511196
000350 45 fd ca 3c f8 4f be 3b 94 71 45 bd aa 58 26 bb
       0.024778971 0.005807873 -0.04820402 -0.0025382438
000360 b5 17 e8 3a 57 28 ce bc 92 9e e5 bc 40 9c 9f 3b
       0.001770726 -0.02516572 -0.028029714 0.0048709214
000370 3b 25 78 3c c1 54 3f bd fa 5b 0c bd 5d ed a5 3b
       0.015145595 -0.046711687 -0.034267403 0.0050636963
000380 a1 43 ad ba e7 7c c2 3b 3b 09 04 3d 77 9a 53 3d
       -0.0013219008 0.0059352997 0.032235365 0.05166098
000390 6e f9 f2 bb 7b 28 82 bc 97 ca 69 3b 31 80 e9 3a
       -0.0074149882 -0.015888443 0.0035673731 0.0017814693
0003a0 aa 9d 80 bc 53 c0 2a bc c6 2d 21 3c 05 93 42 3d
       -0.01570018 -0.01042183 0.009837573 0.04750349
0003b0 fc 8b f6 3b 84 f9 f6 3c 7a 49 ac 3c 1f 2b 2d bd
       0.0075240117 0.030148275 0.02103113 -0.04227745
0003c0 01 81 2a 3d 95 b9 f6 3a 24 80 39 bc b0 ce a8 3c
       0.041626934 0.0018823618 -0.011322055 0.020606369
0003d0 5e 03 5e 3b 38 8b db 3c 08 67 3c bc e8 8b 77 3c
       0.0033876519 0.026799783 -0.011499174 0.01510904
0003e0 77 88 cc bc 10 f4 1e bd 3a 23 17 3c 81 61 33 bd
       -0.024967415 -0.038806975 0.009224707 -0.04379416
0003f0 be 0d fa 3c 53 fd 0d 3d 2f b7 35 3d 01 93 16 3d
       0.03052413 0.034665417 0.04436415 0.036761288

6.bias f4 [128]
000000 4a 75 51 bd 03 d7 9f bd ca 95 03 bd cd 1f 7a bc
       -0.051137246 -0.07804682 -0.03212527 -0.015266371
000010 d1 8c 31 bd f0 03 8d 3d b7 5a 0a 3d 77 04 9e 3c
       -0.043347184 0.06885517 0.03377792 0.019289238
000020 81 59 fc bc 8e 12 82 bc b1 62 7e bb 49 dc 66 3d
       -0.030804398 -0.015877988 -0.003881615 0.056362424
000030 fc 4b f2 bc ca e9 43 3d d8 5d 63 bd 7f b6 a9 3d
       -0.029577248 0.04783038 -0.05550942 0.082867615
000040 21 a1 86 bd ee c0 b9 3b 7a cc 07 3e c7 1f 6f bc
       -0.06573702 0.005668751 0.13261595 -0.014594979
000050 c9 43 70 bd a6 ac bb bb 10 88 8c bd 8b 01 91 bc
       -0.058658395 -0.0057273684 -0.06861889 -0.017700931
000060 c3 58 d1 bc a0 f2 99 3b ed 8d b7 bd a2 80 5d 3d
       -0.02555502 0.0046981126 -0.08962617 0.054077752
000070 b6 51 10 bd 3c 91 4a 3c 4e 0d 2e b8 8d 30 81 bd
       -0.035234176 0.012363728 -4.1497224e-05 -0.063080885
000080 5f 39 92 3d 19 23 16 bd b9 58 39 3c 65 5e 58 bd
       0.07139849 -0.036654565 0.011312657 -0.052824397
000090 28 31 30 3d 4e 26 c6 3c 20 3d af 3c 88 62 91 bc
       0.04301563 0.024188187 0.021391451 -0.017747179
0000a0 44 94 76 bd 0b 3b d5 bc 23 e4 a0 3c c3 6f a3 3d
       -0.06019999 -0.02602913 0.019640034 0.07980301
0000b0 f0 2f d0 bd 13 17 e0 3c fc 69 a0 3d a1 ec 22 bd
       -0.10165393 0.027354753 0.07832715 -0.03977645
0000c0 6f ba 11 3e c3 59 1b bc a0 e1 99 bc 3e a7 1e bd
       0.14231275 -0.00948185 -0.018784344 -0.038733713
0000d0 44 83 a6 3c 89 05 05 bc 9d a6 f0 3d c6 bf 1f 3d
       0.020326264 -0.008118995 0.11750529 0.03900125
0000e0 03 d7 1f 3d e2 bb 00 3e 78 06 65 bd a2 b7 20 3c
       0.03902341 0.12571672 -0.055914372 0.0098094065
0000f0 60 ce f1 3c a0 d3 7e bd 79 c5 30 3d a5 e1 b1 bd
       0.029517353 -0.06221354 0.043157075 -0.086856164
000100 96 a3 f6 bc 0d 0c 5b bd 31 01 9c bc 02 9a 1b 3e
       -0.0301073 -0.05347829 -0.019043537 0.15195468
000110 b4 6c 11 bd c4 ef 33 bd 97 47 8c bd 26 a1 22 bc
       -0.035504058 -0.04392983 -0.06849592 -0.009926116
000120 d0 dd 17 3c a3 00 d0 bd 17 32 19 bc 4f 82 84 3d
       0.009269193 -0.101563714 -0.009350321 0.06470167
000130 be 0b 7b 3c ec 9d 44 3d b4 5d a4 3b 6a d6 30 ba
       0.015322624 0.04800217 0.005016053 -0.00067458174
000140 a5 22 36 3d 7d e3 ad 3d 04 ff ce 3d 37 66 ab 3d
       0.044466633 0.084906556 0.10107234 0.08369105
000150 d3 b6 5c bd e9 a8 7d bc b8 3f bc bc 1a 1f ae bd
       -0.053885292 -0.015482166 -0.022979602 -0.08502026
000160 46 48 80 3c 3d 85 cc ba 8b 89 a0 bc 79 88 6d 3d
       0.015659463 -0.0015603673 -0.019596836 0.05799148
000170 dc 56 78 3d b5 a1 65 bd 0f 8e 2d 3d 0b cd 9f bd
       0.06062971 -0.05606242 0.042371806 -0.07802781
000180 c6 c8 95 3d 57 2c 0f bc 7c c9 85 3d c0 c5 b1 3d
       0.07313685 -0.008738599 0.06532571 0.08680296
000190 c1 b6 15 bd 27 42 35 bd b8 da 14 3d c6 0b 30 3d
       -0.03655124 -0.04425254 0.0363414 0.042979978
0001a0 46 df b1 bd cf dc 23 3d 36 dc e6 3c 87 c9 f4 bc
       -0.08685164 0.0400055 0.028181177 -0.029881252
0001b0 a4 33 a2 bc 94 00 8e 3d ba 34 84 bd ec 2b 10 be
       -0.019800015 0.06933704 -0.06455369 -0.14079255
0001c0 02 cf 9c 3c e4 f8 16 bd 29 74 6a bd 44 c2 49 bd
       0.019141678 -0.036858454 -0.057239685 -0.04925753
0001d0 a9 e9 60 bd 19 7d fa bc d1 63 bd 3d da 93 97 3d
       -0.054910336 -0.03057723 0.09247554 0.07401247
0001e0 4a ea ff bc 42 23 6d bd 67 20 89 3c d2 f4 92 3d
       -0.031239647 -0.057894953 0.016739083 0.07175602
0001f0 12 30 55 bd 5b e8 2d bd 13 fb a8 3d 9f a6 e0 bd
       -0.052047797 -0.04245792 0.082510136 -0.109692805

10.weight f4 [10, 2048]
000000 7e ef 98 bd 09 f8 8f 3b 79 72 e8 3b a6 60 34 bd
       -0.074675545 0.0043935818 0.0070937243 -0.044037484
000010 70 55 4b bd 26 53 46 3d bf 05 b9 3d 51 a8 13 bd
       -0.049642026 0.04841914 0.09034299 -0.03604919
000020 67 ec 94 3d ef 90 8f bc 82 ce 3c bc 62 ae 1e 3c
       0.07271653 -0.017525164 -0.011523845 0.009685131
000030 a4 ee 8f 3a 1d 70 01 bd 2b 2e a7 bc 2d 7d 03 bd
       0.0010981155 -0.03160106 -0.020407757 -0.0321018
000040 67 f0 ca 3d df 17 c6 3d c6 9e 16 bd 4e 2a d0 bd
       0.09909134 0.09672522 -0.036772512 -0.10164319
000050 6f 49 9d 3d a3 dc 15 3d 14 7b fd bc f6 d4 b1 bd
       0.07680022 0.03658737 -0.030942477 -0.08683197
000060 2d bc 89 bd 92 e2 5a bd e1 33 9f 3b d2 fa 3c bd
       -0.06725345 -0.05343873 0.0048584794 -0.04613764
000070 ac 88 a1 bd bc f0 10 bd 51 ef c6 3c 73 4e 1b 3d
       -0.07887396 -0.035385832 0.024284037 0.037916612
000080 5a 6c 1f bd 9a e9 2c bc 73 39 46 bd d6 a0 d6 bc
       -0.03892169 -0.010553742 -0.04839463 -0.02619974
000090 1a 43 22 3d 46 bf b1 3b d7 fe d7 3c 62 79 86 bb
       0.039614774 0.005424413 0.026366634 -0.0041038254
0000a0 8f c3 ad bb 13 e5 bb 3c 61 ea 11 3b 12 8a e5 bb
       -0.0053028534 0.02293638 0.0022264945 -0.0070049847
0000b0 66 a2 93 3b 94 c2 4e bd 85 12 45 bd f5 cd 2d bd
       0.0045054434 -0.050478533 -0.048113365 -0.042432744
0000c0 c1 20 8f bc c6 91 1d bd d2 f2 4b ba 2d 68 23 3d
       -0.017471673 -0.0384691 -0.00077800185 0.03989427
0000d0 05 4b 88 bd c5 31 23 3c ca e1 7d bc 91 31 b0 3c
       -0.06654934 0.009960596 -0.015495727 0.02150801
0000e0 91 c2 68 3b 55 60 47 3c 18 0e 8a bc 3b 6d 0b bd
       0.0035516361 0.012168963 -0.016852424 -0.034039717
0000f0 6e 41 d6 3d ac 41 dd 3d 02 5f c9 3c b0 02 29 bd
       0.104616985 0.108035415 0.024581436 -0.04126233
000100 a4 c9 5a bc fc 22 f7 ba 99 f2 86 bd c8 49 62 bc
       -0.013353739 -0.0018855031 -0.065892406 -0.013811536
000110 a7 6e e8 38 24 f9 45 bb 14 0f 96 3a 86 11 52 3b
       0.00011083233 -0.0030208314 0.0011448585 0.0032053902
000120 5f 61 ac bb f1 04 46 bc 33 92 c0 bb 16 b2 68 bd
       -0.005260631 -0.012086139 -0.0058768033 -0.05681046
000130 97 44 c1 bc 1c 2c dd 3c 1b 58 f3 3c 6a 68 25 3c
       -0.023592276 0.026998572 0.029705098 0.010095695
000140 4a 84 9a 3d 47 86 78 3d 3f 55 0d 3d 82 39 29 3b
       0.075447634 0.06067493 0.034505125 0.002582163
000150 50 43 27 3c c9 38 db bb f4 c9 d7 3c f4 49 6d 3c
       0.01020892 -0.006690119 0.026341416 0.014482964
000160 7b d9 30 3d 13 c7 49 3d 98 59 06 3d 52 9d ee 3a
       0.043176156 0.049262118 0.032800287 0.0018204844
000170 d6 94 6b 3b 02 a9 8c 3b 50 1a 16 3d c0 1f 05 bb
       0.0035946867 0.0042926082 0.036646187 -0.0020313114
000180 33 48 08 bc 39 98 f4 bb 4b a3 80 bc a1 e9 60 bc
       -0.008317995 -0.0074644354 -0.015702864 -0.0137275765
000190 67 b1 a1 3c 10 06 49 3d b5 73 af 3a 14 67 1a bd
       0.019737912 0.049078047 0.0013385924 -0.03769596
0001a0 21 22 28 bd 95 b6 06 ba 50 16 8e 3b 4e 7e 4c bd
       -0.041048173 -0.0005138901 0.004336156 -0.04992514
0001b0 97 82 e2 3c 0a c6 b2 bc 30 df 00 3b b3 af 28 bd
       0.02765016 -0.021822948 0.001966428 -0.041183185
0001c0 6d 61 25 bd 72 4b 04 bd 2a 2d 21 3d 4d 25 15 3d
       -0.040376116 -0.032298513 0.039349712 0.036412526
0001d0 b0 c9 ba bc 5e 1b b7 3c 92 fd 3e 3d 27 23 8a 3a
       -0.02280125 0.022351917 0.046628542 0.0010539041
0001e0 67 b5 93 3c 39 2e dc 3c 08 80 bb 3c b7 4a 0b 3c
       0.018030835 0.02687751 0.022888198 0.0085017
0001f0 31 6d e9 3c e2 12 75 3c c8 52 91 bc e5 fc 51 ba
       0.02849445 0.014958115 -0.017739668 -0.00080104015
000200 22 ae 91 3c 22 32 25 3c cd 49 a3 bc 76 be f4 bb
       0.017783228 0.010082753 -0.019932652 -0.007468994
000210 33 26 cb 3b 0d 61 7d bb a2 23 61 3c f0 27 6c bc
       0.006199622 -0.0038662583 0.013741406 -0.014413819
000220 ba d9 9f bc c9 ee 77 bc 5f 04 58 3c fa 46 b6 bc
       -0.019513 -0.015132614 0.013184636 -0.022250641
000230 5f ab ac 3c c0 71 96 bc d0 24 43 bb 46 78 71 3a
       0.02107781 -0.018364787 -0.002977658 0.00092113425
000240 b7 b1 f4 3c b9 cc cf bc 8e c9 29 bc cc 71 77 bb
       0.029869897 -0.025366174 -0.010362996 -0.0037757037
000250 99 f5 68 3d 83 49 36 3c 2f 00 33 bc 9f ba 9c 3c
       0.056874845 0.011125925 -0.010925337 0.019131957
000260 e9 02 68 bc 00 98 be bc 43 91 55 bc 01 44 c6 3c
       -0.01416085 -0.023265839 -0.013035121 0.024202349
000270 c6 95 6c bd f7 f4 81 3b 0f 17 56 3d 50 d8 07 3d
       -0.057760023 0.0039659697 0.052268084 0.033165276
000280 d6 c3 5d 3b 13 56 80 3c a0 b1 51 bc 35 1e d4 3b
       0.003383865 0.015666043 -0.012798697 0.0064733275
000290 48 ca 0a 3d 20 53 90 3c ba 67 8d bd 37 1a 12 bc
       0.033884317 0.017617762 -0.0690455 -0.008917383
0002a0 bb 6b d1 bc fa c5 0e bc b7 23 e5 bd 3d 3b 31 bd
       -0.025564065 -0.0087141935 -0.11188453 -0.043269385
0002b0 e1 b3 e3 3c ad 4b a0 bc 4a 13 80 bd 4b d0 b5 bc
       0.027795734 -0.019567335 -0.06253679 -0.022194048
0002c0 3b 24 70 bc 7a 3f d4 3b e5 31 cf bc ab 46 37 bc
       -0.0146570755 0.0064772936 -0.025292346 -0.011186282
0002d0 d8 1f 01 bc 62 6b 44 bb 8d 1f ad bc b7 b1 67 3b
       -0.007881127 -0.0029971232 -0.021133209 0.003535373
0002e0 99 28 e3 bc f5 40 7b bd 00 92 af 3a 51 9b 2a 3b
       -0.02772932 -0.061341245 0.0013394952 0.0026032517
0002f0 71 46 a6 bc ce b6 2d bb 7a 18 0c 3d c7 b7 ac 3d
       -0.020297261 -0.0026506665 0.03420303 0.0843349
000300 18 31 97 ba fb 65 16 3b db 80 b3 3c 39 d7 14 bd
       -0.0011535017 0.0022948969 0.021912029 -0.036338065
000310 93 c6 fe 3c 26 42 37 3d 57 c7 97 bc 1e 47 03 bc
       0.031100547 0.04474082 -0.01852767 -0.008012561
000320 28 0a 60 bb 29 19 8c bb 49 e6 02 bd dd c6 c9 3c
       -0.003418574 -0.0042754603 -0.0319579 0.024630958
000330 76 e2 97 bb b9 7a 10 bd 9a 21 4c bb 69 76 77 3c
       -0.0046351505 -0.035273287 -0.0031147958 0.015103915
000340 40 98 9c 3d 2e 8d 5e 3c f2 f8 08 bd 07 ed 9a bd
       0.07646227 0.013583465 -0.033440538 -0.07564741
000350 02 60 a5 3d a3 a9 48 3d f6 ab 8b 3c 28 b0 8b bc
       0.08074953 0.048989903 0.01704977 -0.017051771
000360 26 23 a8 3c e4 de 9f 3c 46 8f 3d 3b af 3a 56 3d
       0.020524573 0.019515462 0.002892451 0.05230206
000370 10 38 24 3d ed 6f 21 39 a2 77 32 bc 64 bb 5a 3c
       0.040092528 0.00015395852 -0.0108927805 0.0133503415
000380 bd fd b4 bc fe a2 05 bd d3 a7 ab bc 7d 94 90 bc
       -0.022093648 -0.032626145 -0.020954048 -0.01764893
000390 09 9b 52 3c d8 26 05 3d 09 eb 91 3d 98 44 21 bc
       0.012854346 0.032507747 0.071249075 -0.009843014
0003a0 b8 52 28 bc c9 0d 43 3d 2e 53 6a 3d cf b7 7c bb
       -0.010273628 0.04762057 0.057208233 -0.0038561707
0003b0 8d 13 c6 bc 79 b9 f0 bb 92 c2 43 3d e2 aa db 3c
       -0.024179244 -0.007346329 0.04779298 0.026814882
0003c0 4a c3 a1 bd 9f 82 93 3c 2b e3 04 3d 49 13 b6 3c
       -0.078985766 0.01800662 0.032443207 0.022225993
0003d0 75 fb d9 3b 7e b3 43 bd 9c e3 98 bc f5 80 53 3c
       0.0066522905 -0.0477786 -0.01866322 0.012909164
0003e0 01 86 91 bb 32 62 db bd dd d3 fd 3b f9 37 c8 bd
       -0.0044410233 -0.10712089 0.0077462033 -0.09776301
0003f0 e1 cd f9 3c 3f c9 2b 3c a5 c6 77 3c 79 7d c6 bc
       0.030493679 0.0104849925 0.015123044 -0.024229752

10.bias f4 [10]
000000 2b 73 33 3d 41 1a 46 be f9 a5 1a 3d a7 52 cc 3c
       0.043811005 -0.19345953 0.03775594 0.024941755
000010 9d 21 50 3e 39 f4 15 bd 39 1a 3a 3c ae ce d8 bd
       0.20325322 -0.036609862 0.011358791 -0.10586296
000020 08 48 24 3e a4 04 1b be
       0.16043103 -0.15138489
